…
td', 'gyroMag_Mad', 'gyroMag_Range', 'gyroMag_Iqr', 'gyroMag_Rms', 'gyroMag_Peak_count', 'gyroMag_Energy', 'gyroMag_Entropy', 'gyroMag_Skewness', 'gyroMag_Kurtosis', 'gyroJerkMag_Mean', 'gyroJerkMag_Median', 'gyroJerkMag_Min', 'gyroJerkMag_Max', 'gyroJerkMag_Std', 'gyroJerkMag_Mad', 'gyroJerkMag_Range', 'gyroJerkMag_Iqr', 'gyroJerkMag_Rms', 'gyroJerkMag_Peak_count', 'gyroJerkMag_Energy', 'gyroJerkMag_Entropy', 'gyroJerkMag_Skewness', 'gyroJerkMag_Kurtosis', 'bodyAcc_Sma', 'gravityAcc_Sma', 'gyro_Sma', 'bodyAccJerk_Sma', 'gyroJerk_Sma', 'activity']
Model: OurModel(
  (model): Sequential(
    (0): Linear(in_features=30, out_features=1024, bias=True)
    (1): ReLU()
    (2): BatchNorm1d(1024, eps=1e-05, momentum=0.1, affine=True, track_running_stats=True)
    (3): Dropout(p=0.5, inplace=False)
    (4): Linear(in_features=1024, out_features=512, bias=True)
    (5): ReLU()
    (6): BatchNorm1d(512, eps=1e-05, momentum=0.1, affine=True, track_running_stats=True)
    (7): Dropout(p=0.5, inplace=False)
    (8): Linear(in_features=512, out_features=256, bias=True)
    (9): ReLU()
    (10): BatchNorm1d(256, eps=1e-05, momentum=0.1, affine=True, track_running_stats=True)
    (11): Dropout(p=0.5, inplace=False)
    (12): Linear(in_features=256, out_features=128, bias=True)
    (13): ReLU()
    (14): BatchNorm1d(128, eps=1e-05, momentum=0.1, affine=True, track_running_stats=True)
    (15): Dropout(p=0.5, inplace=False)
    (16): Linear(in_features=128, out_features=12, bias=True)
    (17): ReLU()
    (18): BatchNorm1d(12, eps=1e-05, momentum=0.1, affine=True, track_running_stats=True)
    (19): Dropout(p=0.5, inplace=False)
    (20): Softmax(dim=1)
  )
)
Loss Function: Cross Entropy Loss
Optimizer: Adam (
Parameter Group 0
    amsgrad: False
    betas: (0.9, 0.999)
    capturable: False
    differentiable: False
    eps: 1e-08
    foreach: None
    fused: None
    lr: 0.0001
    maximize: False
    weight_decay: 0
…
